Certura_Internship/Task 1/Chatbot/data.pth (torch, 5930 bytes, 6 tensors)

l1.weight f4 [8, 63]
000000 0a b6 7e be 69 0b 31 3f 9b f7 20 3f 6d 16 80 be
       -0.2487413 0.69158036 0.62877816 -0.2501711
000010 b1 a1 01 3f fc fc 5f bf 25 fb 12 3f a6 2f 53 3f
       0.50637347 -0.874954 0.57414466 0.8249458
000020 6d c8 15 bf 2f 56 74 bf 2a f2 d2 bb 4f c3 19 3f
       -0.5850895 -0.95444006 -0.0064375596 0.6006364
000030 70 3b fa 3e 17 08 16 3f d5 f9 3a 3f fc 70 b0 be
       0.48873472 0.58606094 0.73037463 -0.344612
000040 ab f2 ba 3e 91 b4 b1 be cf 3f 1b be bb 22 5c 3f
       0.36513266 -0.34708074 -0.1516106 0.85990494
000050 09 d6 64 be 0a 37 16 3f e4 cd 7f bf f6 38 da bd
       -0.22347273 0.5867773 -0.9992354 -0.10655396
000060 c5 dc 3a 3f a2 5b ba be 67 af 3c 3f 9e 74 6c 3f
       0.7299312 -0.36398035 0.7370514 0.92365444
000070 0c 0e 56 3e e4 28 46 3d 65 02 ba be 56 94 6c 3e
       0.20903796 0.04837884 -0.36329952 0.2310346
000080 5d 80 ef bd 68 fe 2e 3f a6 82 63 be a8 c3 e0 3e
       -0.11694405 0.68356943 -0.22217807 0.43899274
000090 4a d8 f3 be b9 5c 2a 3f 50 fa 87 be 26 4a 6d be
       -0.47625953 0.66547734 -0.2655816 -0.23172817
0000a0 5b 2b 24 3f 04 be 2c 3f 90 10 9e 3e d6 51 89 3f
       0.64128655 0.6747744 0.3087201 1.0728099
0000b0 57 6d 78 be 18 5b 30 be 2e 01 f0 3e 30 ea 17 3f
       -0.2426046 -0.1722225 0.468759 0.59341717
0000c0 22 b4 cc 3e 5e 44 20 bf 4d 04 94 be 62 78 b4 be
       0.3998118 -0.6260432 -0.2890953 -0.35248095
0000d0 91 0d 2a 3f 22 32 57 3d 6e 49 5c 3e e1 aa 91 bf
       0.6642695 0.052538045 0.21512386 -1.1380273
0000e0 50 1c c3 be de cd 2c 3f 12 49 4c be 35 cd 30 be
       -0.38107538 0.6750163 -0.19949749 -0.1726578
0000f0 f6 12 bf 3d 82 7d 0e 3f 61 bf 81 3e db 20 27 3f
       0.093297884 0.5566026 0.25341323 0.6528451
000100 e8 c3 8b be 61 39 88 be 1c 82 5b 3e 6e 39 0a 3f
       -0.27297902 -0.26606277 0.21436352 0.5399388
000110 04 61 68 3f f1 5c a6 be 98 39 70 3d 7d 2c 0b 3f
       0.90773034 -0.32492784 0.058648676 0.5436476
000120 ce 4f 01 3f f3 cb cd 3d 92 78 c0 3e b7 09 e4 3e
       0.505124 0.10048666 0.37591988 0.44538662
000130 89 f3 82 3e 61 05 14 be 20 df ee bd 69 f2 d9 3e
       0.25576428 -0.14455177 -0.116636515 0.42567757
000140 e8 76 d5 3d 97 f8 e1 bd ee b7 9b be a0 49 9b bd
       0.1042307 -0.11033743 -0.30413765 -0.07582402
000150 28 37 06 be ad 40 f9 3e b8 8f e4 3e 89 2a 8d be
       -0.13106978 0.48682156 0.446409 -0.27571514
000160 09 43 b9 3e 62 16 8d be e6 31 8d be 91 66 21 bf
       0.36183956 -0.2755614 -0.27577132 -0.6304713
000170 53 2f 7c 3e 8d 35 02 3f d9 33 6e bd 33 bd 26 3f
       0.24627428 0.5086296 -0.058154915 0.65132445
000180 b3 2b eb be 32 cc e5 3e a1 1f e4 be 37 87 3f 3d
       -0.45931777 0.4488235 -0.4455538 0.04675981
000190 fb bd 9f be 4b 4e 03 be 64 11 bd 3e 9c b6 d8 be
       -0.3119963 -0.12822835 0.3692733 -0.4232682
0001a0 75 83 dc 3e 5d 6e 62 3d f1 e3 2b bf 6b 95 92 bc
       0.43069044 0.055281032 -0.67144686 -0.017893514
0001b0 34 b9 af 3e fd e0 11 3f 6f 72 c5 3e dc 52 08 3f
       0.34320986 0.5698393 0.38563868 0.53251433
0001c0 d5 f0 5e 3d 19 7f 0b 3f 97 39 f7 bd 8d 97 1d be
       0.054428894 0.5449081 -0.12071531 -0.15389843
0001d0 9a 80 cd 3e fe 89 01 3e b5 49 84 3f a9 a5 05 3f
       0.40137178 0.12650296 1.0334994 0.522059
0001e0 96 55 dc 3d b3 72 e8 3e 54 df 26 bd 00 77 bc 3e
       0.10758512 0.4540001 -0.040740326 0.3680954
0001f0 9b 77 dd 3e 23 70 f0 3e 6d 35 59 bd 25 e7 d6 3d
       0.43255314 0.46960554 -0.053029466 0.10493306
000200 7e 97 0d 3f a0 b4 2c bf 8f a5 e4 3e c0 e8 87 bc
       0.55309284 -0.6746311 0.4465756 -0.016590476
000210 5a a8 57 be 6c 64 1e 3e 1c 67 0a be 67 46 20 3f
       -0.21060315 0.15467995 -0.13515896 0.62607425
000220 4e 2e d3 3d 6a 86 10 3f 3a 39 07 3f 45 2b 0d 3f
       0.10311566 0.564551 0.52821696 0.5514415
000230 2c 0a 94 be ca fe 68 be 0c 58 e8 3e 23 2e 66 be
       -0.2891401 -0.22753444 0.45379674 -0.22478537
000240 52 e6 b4 be b8 b2 11 3f 8c a6 73 be 92 87 82 be
       -0.3533197 0.5691333 -0.23794001 -0.25494057
000250 37 20 4f 3f 43 1b eb 3d d6 85 04 bf e7 99 91 3e
       0.8090853 0.11479809 -0.5176672 0.2843773
000260 3d 51 1d bf 71 62 18 bf d4 d0 0f bf 90 f7 91 3e
       -0.61452085 -0.5952521 -0.5617802 0.28509188
000270 93 97 f6 bd 3f 50 b4 be 35 70 d3 3e 18 0a 26 3f
       -0.12040629 -0.35217473 0.41296545 0.6485915
000280 ef bc 89 3e 39 8b b5 3e 0a be 03 3f b7 e3 ef be
       0.26901957 0.3545778 0.5146185 -0.4685342
000290 9a d5 c3 bd ad 1b ab bd b3 20 ce be cc 85 df 3e
       -0.09562226 -0.08354888 -0.40259323 0.43656766
0002a0 b8 9b c2 3e 88 93 1d bf a1 bd eb be 24 d3 d3 3e
       0.3800943 -0.6155324 -0.46043113 0.41372025
0002b0 4d 42 1e 3f 7f 51 0d 3f 1a 79 e2 3e 07 42 0f 3f
       0.61819917 0.5520248 0.44233018 0.55960125
0002c0 81 cd d2 3d 43 47 48 bd 20 c5 e6 3e 31 07 a2 3e
       0.10293103 -0.048896085 0.4507227 0.31646112
0002d0 cc 6e 97 3e e0 99 cc 3d 59 13 81 3e 43 4d 16 3e
       0.2957672 0.09990287 0.25210074 0.1467791
0002e0 e5 c0 b4 3e 94 e7 da be 37 76 41 3d c8 d1 05 3f
       0.35303417 -0.42754805 0.04723188 0.52273226
0002f0 f1 b5 01 3f 27 c2 d6 be 75 b0 c6 3e 32 60 3a 3f
       0.50668246 -0.41945 0.388065 0.7280303
000300 56 69 38 3e 2d b3 05 bf 68 d0 02 3f 88 be 15 bf
       0.18008932 -0.52226526 0.5109925 -0.5849385
000310 c5 4e 26 bf 11 21 80 3e 3a 37 69 3f 7c 60 91 3e
       -0.6496394 0.25025228 0.91099894 0.28393924
000320 73 1d 4f be 13 f9 f1 bd 8e e0 d8 be e5 8e 01 bf
       -0.20226078 -0.11815085 -0.42358822 -0.50608665
000330 7b 6d 59 3d a4 77 1e bd 86 fc 6c 3d 96 5c 06 3f
       0.053082924 -0.038688317 0.057858013 0.52485025
000340 37 9f 0e 3f 71 b9 06 3d c9 df bb be d1 b0 69 3f
       0.5571169 0.032891694 -0.36694172 0.91285425
000350 db 7b 12 be 6d 80 5f bf cf 3a 49 be 55 7c 5f bf
       -0.1430506 -0.8730534 -0.1965134 -0.8729909
000360 31 8e 5f bf 40 8e 94 be b3 ba a4 be b2 9b bc 3e
       -0.8732634 -0.29014778 -0.3217369 0.36837536
000370 d1 76 df 3e c5 29 56 be cf 2d 21 3f 86 0a df 3d
       0.43645337 -0.20914371 0.62960523 0.10890679
000380 06 a8 2b 3f e7 8d 20 3f 47 c6 8e 3e 3e a7 69 bd
       0.6705326 0.62716526 0.2788565 -0.05704426
000390 76 3d 93 be 0b 79 ad 3e e5 c4 c1 be 4f fb 09 3f
       -0.28757828 0.3388141 -0.3784553 0.5389909
0003a0 7f 05 25 3f b1 ff 6b 3d da bf 5b bd 22 35 30 be
       0.6446151 0.057616893 -0.05364976 -0.17207769
0003b0 0a 4a b0 be 37 8c 82 be a7 42 24 3f 20 5c d6 be
       -0.34431487 -0.254976 0.64164203 -0.4186716
0003c0 fd 63 32 be f4 b4 fa 3e e2 ed 8c be 52 73 09 3f
       -0.17420955 0.4896618 -0.2752524 0.5369159
0003d0 ed 80 5f bf c5 c1 08 be 04 cd 28 bf 94 77 20 3e
       -0.873061 -0.13355167 -0.6593783 0.15670615
0003e0 8f db c6 3d a5 7e 2d be 84 53 72 be a6 97 87 3d
       0.09709846 -0.16942842 -0.23664671 0.066207215
0003f0 80 7b ca bd e3 de 1b bb 1a 94 09 bf 3d 7f 87 3f
       -0.09886837 -0.0023783974 -0.5374161 1.0585705

l1.bias f4 [8]
000000 bd a6 91 3f 1e 27 8d 3e 8a 52 1d 3f 7e 86 5f 3f
       1.137901 0.27568907 0.6145407 0.87314594
000010 c7 0b 4d 3f 3d 14 1b 3f 7e 56 66 3f 91 a0 a5 3f
       0.80096096 0.60577756 0.89975727 1.2939626

l2.weight f4 [8, 8]
000000 b1 df 77 3f 91 e6 f0 3e 30 26 c5 3f bb 73 88 3d
       0.968257 0.47050908 1.5402279 0.06662699
000010 88 10 14 bf 88 cb 83 be b8 db c1 3e 1a 3a 15 3f
       -0.57837725 -0.2574122 0.37862945 0.5829178
000020 8d e1 d0 3e 0c ca 1e bf ed c9 3c bf 80 01 33 bd
       0.40797082 -0.6202705 -0.73745614 -0.043702602
000030 18 ae ea 3d 42 01 09 bf 81 1e 03 3f b7 aa c7 3f
       0.11458987 -0.53517544 0.5121842 1.5598973
000040 5a 7b d4 3f 3d 3a 90 bf fc 1d 4f 3f f9 51 95 3f
       1.6600144 -1.1267773 0.8090513 1.1665641
000050 d8 64 8a be a9 94 18 3f bc 75 1a bf 08 53 f5 3e
       -0.27030063 0.5960184 -0.603359 0.4791491
000060 53 3f ba bd 44 f4 9b bd ae cf e4 3d 19 7b 07 be
       -0.090941094 -0.07614949 0.11172424 -0.13230552
000070 89 a3 7f 3e 38 7c 6a be e0 04 70 be 95 fc 56 3e
       0.24964727 -0.22898948 -0.2343936 0.2099479
000080 41 3a 75 be ba bb 8e be 84 bb e7 bd 7d 9b 93 be
       -0.23948003 -0.278776 -0.11315063 -0.28829566
000090 22 7d 72 be 66 33 a1 be f6 33 09 be 1c 08 7c be
       -0.23680547 -0.31484526 -0.13398728 -0.24612468
0000a0 a8 63 7f 3f 7f 51 63 bf ee 04 8d bf 39 93 8d 3e
       0.9976144 -0.8879623 -1.101713 0.27651384
0000b0 39 d3 d8 3f 06 b9 e4 3e 51 ee 9d 3f b7 c8 4f bf
       1.693946 0.44672412 1.2338353 -0.8116564
0000c0 ef 23 ad bf e6 d2 91 3f d3 cb 43 3f cc f7 81 3f
       -1.3526591 1.1392486 0.76482886 1.0153747
0000d0 31 53 38 3f 6f 74 a7 3f be e2 7c 3e 74 2d c0 3f
       0.7200194 1.3082408 0.2469587 1.5013871
0000e0 2b 32 7a 3f 81 fb 49 3f 0c 57 d2 3e 16 b8 a7 bf
       0.977328 0.7889939 0.41082036 -1.3103054
0000f0 a6 43 a7 3e 11 77 85 bf 87 67 ca 3f c0 4b e8 3e
       0.326688 -1.0426961 1.5812844 0.45370293

l2.bias f4 [8]
000000 da 13 43 3e b0 81 72 3f 32 0f 8b 3f 83 44 5e be
       0.19050542 0.9472914 1.0864012 -0.21705823
000010 03 ff a8 be 18 b3 1e 3f 9c 88 16 3f ee 3d 40 3f
       -0.33007059 0.61992025 0.588022 0.750945

l3.weight f4 [10, 8]
000000 07 06 bf bf 3c 6a 85 bf 09 a7 f9 be 09 cf 9a 3e
       -1.4923714 -1.0423045 -0.4876025 0.3023608
000010 a0 7f ef 3c 5a 77 96 3d 43 c1 44 3f e0 3a 80 bf
       0.029235661 0.07346983 0.76857394 -1.0017967
000020 ec 85 ea bf f5 37 ed 3c f4 66 d4 bf bc 69 92 be
       -1.832212 0.028957346 -1.6593919 -0.28596294
000030 4c a5 94 bd 09 61 42 3f 26 82 7c be 43 33 79 3e
       -0.072580904 0.75929314 -0.24659023 0.24335961
000040 bd 39 19 3f 5c 2e c1 bf 44 df 41 3f 8f 8a 8d 3e
       0.59853727 -1.5092273 0.757313 0.27644774
000050 df cd ac be fb 1f 49 bf 0b c9 31 bf d9 c5 74 bf
       -0.33750817 -0.78564423 -0.6944739 -0.9561439
000060 8c 1c 30 bd 03 9d 72 3e 46 58 32 3e 16 ac 6e bd
       -0.042995974 0.23692708 0.17416486 -0.058269583
000070 84 a9 4a be 36 ba f4 bf 77 fd 44 3f e0 54 dd bf
       -0.19791228 -1.9119327 0.76949257 -1.7291527
000080 7b 83 f6 be a5 f4 01 3f f3 fe 97 be 8c 81 aa 3d
       -0.48147187 0.5076392 -0.29686698 0.0832549
000090 00 d1 39 3b ba df 1d 3f fb bd c7 bf a6 d5 a7 3e
       0.0028353333 0.61669505 -1.5604852 0.32780188
0000a0 ec 8b ec bb 61 b7 c1 bf 1f 4a 90 bf 8c 56 62 bd
       -0.0072188284 -1.5134088 -1.127262 -0.05525832
0000b0 20 89 30 bd 4c 1f 9b 3b e2 85 a9 bb 61 15 0b 3f
       -0.043099523 0.0047339555 -0.005173431 0.54329497
0000c0 72 df bf bf 26 1c 84 be f9 f7 dd 3e 5b 63 17 3e
       -1.4990065 -0.25802726 0.4335325 0.14783995
0000d0 30 94 23 3d 3e 4f 4f 3f 6a b8 26 bf a3 cb a3 bf
       0.039936244 0.8098029 -0.65125144 -1.279652
0000e0 44 bf bb be 33 e5 2d 3f 5b de f6 3e cd 20 e2 bd
       -0.36669362 0.67927855 0.4821652 -0.110414125
0000f0 80 2b 09 bd 86 02 06 bf 2f 72 d5 bd 58 a8 d4 bd
       -0.03348875 -0.523476 -0.104221694 -0.103836715
000100 3d f3 12 3f 0f 1d a0 bf 93 e5 be bc e3 42 0a be
       0.574024 -1.2508868 -0.023302829 -0.13502078
000110 19 92 83 be f4 ae ae bf 94 b6 5c bf c7 26 2b 3f
       -0.256974 -1.3647141 -0.8621609 0.66856045
000120 82 b6 6a be 65 9a 18 3f da 31 b5 bf 94 04 88 3e
       -0.22921184 0.5961059 -1.4155838 0.26565993
000130 b1 c2 8a be ea 06 ce bf b3 82 c5 3e 5c 5c 00 3f
       -0.27101663 -1.609586 0.38576278 0.5014093

l3.bias f4 [10]
000000 e9 36 98 3e 15 93 8c be 82 47 0e bd 43 0f 5e be
       0.29729393 -0.27455965 -0.034736164 -0.2168551
000010 c9 08 8e be e7 63 4d 3c 54 86 2e be 19 ca 51 3e
       -0.27741078 0.012536026 -0.1704343 0.2048725
000020 d3 34 c6 bb 84 08 67 3d
       -0.0060487776 0.056404606
